little_project/pytorch_learn/手写识别_test_2/mnist_model.pth (torch, 409200 bytes, 4 tensors)

fc1.weight f4 [128, 784]
0	0xbae65e35	-0.0017575683
1	0xbc10a626	-0.008828675
2	0x3c435348	0.011921711
3	0x3cff9a32	0.031201456
4	0xbc02d0de	-0.007984368
5	0x3c9f392e	0.019436445
6	0xbc7c32a2	-0.015392931
7	0x3c35ff6c	0.011108261
8	0x3cf5e13a	0.030014623
9	0x3d22f3a7	0.039783146
10	0x3c5ea1a8	0.013588347
11	0xbc704e92	-0.01466717
12	0x3d212dbd	0.03935026
13	0x3b9e3376	0.004827912
14	0x3c8c508e	0.017128255
15	0x3d2bff89	0.041991744
16	0xbce76d96	-0.028250497
17	0x3cc01728	0.023448542
18	0xbcb6704a	-0.02227034
19	0x3d1ac4ed	0.03778546
20	0x3d109d04	0.03530599
21	0x3d1780bb	0.036988
22	0x3cfa578c	0.030559324
23	0xbc9d1f70	-0.01918003
24	0x3cceadfa	0.025229443
25	0xbaaefdc4	-0.0013350775
26	0xbc41c7a5	-0.011827384
27	0xbc36e017	-0.011161826
28	0xbb7f73d5	-0.0038978953
29	0x3d06a3ec	0.03287117
30	0x3d0c84ed	0.034306455
31	0x3d1ce63d	0.03830551
32	0x3c21aa07	0.009867198
33	0x3d017502	0.031605728
34	0x3b8c2c1f	0.0042777206
35	0x3cd7ae2c	0.026328169
36	0x3d23e34d	0.040011693
37	0x3cdb4dba	0.026770461
38	0xbc39e5fd	-0.011346337
39	0xbc93c685	-0.018038997
40	0x3b6f5620	0.003651984
41	0x3d16adcd	0.036786843
42	0x3ce15e5c	0.027510814
43	0x3cc41a40	0.023938298
44	0xbcbd3c95	-0.023100177
45	0xbca75c90	-0.02042988
46	0x3b502f31	0.003176641
47	0x3cfb5570	0.030680388
48	0x3c5003dd	0.012696234
49	0x3b5522a1	0.003252186
50	0x3c51b4d9	0.012799465
51	0xbca56cec	-0.02019354
52	0x3c5f08a0	0.013612896
53	0x3ca53f79	0.020171868
54	0x3c754f24	0.014972482
55	0xbc32c341	-0.01091081
56	0xbaab6183	-0.0013075325
57	0xbb7cc2c4	-0.0038568238
58	0xbce6395d	-0.028103525
59	0x3c7f428c	0.015579831
60	0x3d22f37f	0.039782997
61	0x3d0eb2cf	0.034838494
62	0x3cdfefa2	0.027335946
63	0x3c08e06b	0.008354287
64	0xbca3ec0a	-0.020010013
65	0x3d166e1f	0.036726113
66	0xbad35ee0	-0.0016126297
67	0x3b9f4ab6	0.004861201
68	0x3d1c13c3	0.038104784
69	0x3d29ce29	0.041456375
70	0x3cbc64a6	0.022997212
71	0xbcce48ff	-0.025181292
72	0x3be16209	0.006878142
73	0x3cf0c218	0.029389426
74	0xbc83c82e	-0.016086664
75	0x3b577c80	0.0032880604
76	0xbcc71bbc	-0.024305217
77	0x3b64f450	0.003493566
78	0x3ccfe19c	0.025376134
79	0x3c9895f0	0.018626183
80	0x3d01f7c6	0.031730436
81	0x3ba92d16	0.0051628454
82	0x3ceb404e	0.028717186
83	0x3cf90a3e	0.030400392
84	0xbc8b0ebc	-0.0169748
85	0x3c9cb928	0.019131258
86	0x3cd4c9c2	0.025975112
87	0xbc8e2f7a	-0.017356623
88	0x3cd47906	0.025936615
89	0xbc2cb898	-0.010542057
90	0x3c924cd0	0.017858893
91	0xbbda14cc	-0.006655311
92	0x3c95bf70	0.018279761
93	0x3c59e45d	0.013299075
94	0xbbbfd1a8	-0.0058538504
95	0xbcc6ecde	-0.024282869
96	0x3c1e20e2	0.009651395
97	0xba36816b	-0.0006962034
98	0x3ba3f597	0.005003642
99	0x3d2c1d44	0.042020097
100	0xbcb72b71	-0.022359582
101	0x3d20ba0f	0.03923994
102	0x3c175346	0.0092361625
103	0x3afc496a	0.0019247953
104	0x3cf0adc1	0.029379727
105	0xbc6028a0	-0.013681561
106	0x3cf662cc	0.030076407
107	0x3d26f9f9	0.040765736
108	0x3c967d10	0.018370181
109	0xbc0da86c	-0.008646112
110	0xbc15c734	-0.009141732
111	0x3bf103f6	0.0073552085
112	0x3b6d95a0	0.0036252514
113	0x3d2a990b	0.04164986
114	0x3b2844f2	0.002567586
115	0xbcb3c0d8	-0.021942541
116	0x3bb13116	0.005407463
117	0x3d231d9f	0.03982317
118	0x3d0d16d5	0.034445602
119	0x3bc589bf	0.0060283835
120	0xbcb9e518	-0.022692248
121	0x3c517e1e	0.012786416
122	0xbcbc7fed	-0.023010219
123	0x3b864d5f	0.004098579
124	0xbc470ef0	-0.0121495575
125	0x3c972d6b	0.018454274
126	0xbcad3335	-0.021142581
127	0x3cac4af6	0.021031838
128	0x3ad58abb	0.0016291955
129	0xbc51caf1	-0.012804733
130	0x3d036e7e	0.032087795
131	0xbbbc9e0a	-0.0057561444
132	0x3ceb55fb	0.028727522
133	0xbb43cc37	-0.002987636
134	0xb914cde8	-0.00014191086
135	0xbc1d5974	-0.009603847
136	0x3cbfc67e	0.023410078
137	0x3cbe38f2	0.023220513
138	0xbca820ca	-0.020523448
139	0x3d10ee90	0.03538376
140	0x3bbeadcf	0.0058190594
141	0xbc3a76ef	-0.011380895
142	0xbc96861a	-0.018374491
143	0xbc394e9d	-0.011310247
144	0xbc8b3ef0	-0.016997784
145	0xbcae7709	-0.021296995
146	0x3c23e07d	0.010002253
147	0x3b5612ca	0.0032665008
148	0xbcd6f8b0	-0.02624163
149	0x3cecb30d	0.028893972
150	0x38ea2775	0.00011165339
151	0xbc88bae2	-0.016690675
152	0x3ca4e83c	0.02013027
153	0xbc8c1909	-0.017101781
154	0x3c5bc3d2	0.013413386
155	0xbaf5473e	-0.0018713248
156	0xbaf5e9db	-0.0018761711
157	0xbc8d413d	-0.017243022
158	0x3b88c98b	0.0041744164
159	0xba8f6456	-0.0010939937
160	0xbc66e999	-0.01409378
161	0x3bd8d0ab	0.006616672
162	0xbcaf12e7	-0.021371318
163	0x3c249eda	0.010047639
164	0x3d0941ad	0.0335099
165	0x3bf91c63	0.007602261
166	0x3c2c66ff	0.010522603
167	0x3b0064da	0.0019591362
168	0x3b652c20	0.0034968928
169	0x3cfaa338	0.030595407
170	0x3b746090	0.0037289
171	0xbcecd22c	-0.028908812
172	0x3b2b3ed2	0.0026129973
173	0x3c9c8505	0.019106397
174	0xbce2cb1c	-0.02768474
175	0x3c098d44	0.008395497
176	0x3c97012a	0.018433172
177	0xbcad4eb0	-0.021155685
178	0xbcc2d7cf	-0.023784546
179	0x3ab3e230	0.0013724025
180	0x3cf565ea	0.029955823
181	0xbca8e1ab	-0.02061542
182	0xbbb86793	-0.0056275814
183	0x3b78294e	0.0037866416
184	0x3cce0f3f	0.025153754
185	0xbcaff30a	-0.021478195
186	0x3c71e406	0.014763838
187	0xbcdd06bf	-0.026980756
188	0x3c356aab	0.011072795
189	0x3cf8c7f8	0.03036879
190	0x3cf1a549	0.02949776
191	0xbbf0f3f5	-0.0073533007
192	0xbc9bf253	-0.019036448
193	0x3c629bb3	0.013831067
194	0xbcee75a2	-0.029108826
195	0x3bab5a46	0.0052292673
196	0xbcd7b908	-0.026333347
197	0x3c2fd3e3	0.01073167
198	0x3be97f5e	0.007125779
199	0x3d05f84f	0.03270751
200	0xbba33aea	-0.0049813883
201	0x3cf17e75	0.029479245
202	0x3c9bf5ce	0.019038107
203	0xbc6e0258	-0.014526926
204	0x3ac62ad6	0.0015118967
205	0x3c9ec3c3	0.019380456
206	0xbc1a6bb6	-0.009425094
207	0xbb01bf7d	-0.0019797974
208	0xbc26212c	-0.010139745
209	0xbc6acbda	-0.014330829
210	0x3cdb5e1e	0.026778277
211	0x3c409834	0.011755038
212	0x3cb7c88d	0.022434497
213	0xbc9e94bc	-0.019358031
214	0xbc18ecd7	-0.009333811
215	0xbae5b22d	-0.0017524414
216	0xbcd7fb4b	-0.026364943
217	0x3c2c59b7	0.010519437
218	0xbb030de7	-0.00199973
219	0x3c914fb7	0.017738206
220	0x3a732e10	0.0009276578
221	0xbc811ec8	-0.015761748
222	0x3be13847	0.006873164
223	0x3cf1b46e	0.02950498
224	0x3be7b816	0.0070715053
225	0xbce8d4a4	-0.028421707
226	0x3c4aad85	0.012370472
227	0x3cfa8794	0.030582227
228	0xbc9a57f5	-0.01884077
229	0x3d033f34	0.032042697
230	0xbcb704a2	-0.022341076
231	0x3d24df55	0.04025205
232	0x3cdf6658	0.027270481
233	0xbb2cf113	-0.0026388809
234	0xbbce4054	-0.0062942896
235	0x3ced6357	0.028978033
236	0x3d1f0533	0.038823318
237	0x3d1591df	0.036516067
238	0x3c4b7ca3	0.012419852
239	0xbcaa3cd6	-0.020780962
240	0x3d27c541	0.0409596
241	0x3c777baa	0.015105167
242	0x3ca585f0	0.020205468
243	0x3d07f2ed	0.033190656
244	0x3d1ca333	0.038241576
245	0x3c871964	0.0164916
246	0x3c15e339	0.009148412
247	0xbc9e47ab	-0.019321283
248	0xbb31cdd0	-0.002713073
249	0x3d1dbc9a	0.038509943
250	0x3d04b224	0.03239645
251	0x3c6ec238	0.014572673
252	0xbc899d9c	-0.016798787
253	0x3b080779	0.0020756407
254	0xbcdfea82	-0.027333502
255	0x3c465175	0.012104382

fc1.bias f4 [128]
0	0x3ca47d6e	0.02007934
1	0x3cf69e84	0.030104883
2	0x3acc862d	0.0015603952
3	0x3cf37c3f	0.029722331
4	0x3cc9570a	0.024577636
5	0xbcb80a4e	-0.022465851
6	0xbcda8e5e	-0.026679214
7	0x3b87292d	0.0041247816
8	0xbc8d901b	-0.017280629
9	0x3bc8194e	0.006106532
10	0xbc8a2d44	-0.016867287
11	0x3c35b66c	0.011090856
12	0xbceeff17	-0.02917437
13	0xbba61f27	-0.0050696316
14	0x3c5f95bb	0.013646538
15	0xbb78b5d8	-0.0037950184
16	0x3c534d78	0.012896888
17	0x3b3e8bab	0.0029074948
18	0x3b1103f5	0.0022127603
19	0x3c3665ba	0.011132652
20	0xbce37230	-0.02776441
21	0xbc96ef80	-0.01842475
22	0xbbedaad3	-0.00725303
23	0x3c38a3da	0.011269534
24	0x3bc93013	0.006139764
25	0xbcb24994	-0.0217636
26	0xbd2b02d2	-0.041750737
27	0xbcda0a6e	-0.026616301
28	0xbd04dc1b	-0.03243647
29	0xbc6368b8	-0.013879947
30	0xbcf804aa	-0.030275661
31	0x3cf67329	0.03008421
32	0x3af5bd0b	0.0018748356
33	0xbc077a46	-0.008268898
34	0xbd0b93f0	-0.03407663
35	0xbca86425	-0.020555565
36	0x3c39b8bf	0.011335551
37	0xbb8d10fa	-0.0043050023
38	0xbc8f41d6	-0.017487448
39	0x3c817432	0.015802477
40	0x3cbf3291	0.023339542
41	0x3c92d5fd	0.017924303
42	0xbca3b023	-0.01998145
43	0x3b93ab0d	0.004506475
44	0xbccf4687	-0.025302185
45	0x3ca8b02f	0.020591823
46	0xbc2adbb0	-0.010428354
47	0x3d1a11f5	0.03761478
48	0x3c79b55a	0.0152409915
49	0x3aab60e4	0.001307514
50	0xbbc5fe5c	-0.006042285
51	0xbcf55868	-0.029949382
52	0xbcfbee21	-0.030753197
53	0xbc6e72db	-0.014553751
54	0x3d4cd4ae	0.050007515
55	0x3a509381	0.000795655
56	0x3c95ea0e	0.018300083
57	0xbd0bf539	-0.03416941
58	0xbc360e08	-0.011111744
59	0xbd250f43	-0.040297758
60	0xbc6fadce	-0.014628841
61	0x3b488dd9	0.0030602126
62	0x3cbbd8e0	0.022930562
63	0xbd0eb465	-0.034840006
64	0xbc83bbe0	-0.016080797
65	0xbca02944	-0.019550927
66	0xbbf0aa24	-0.007344501
67	0x3c828aab	0.015935263
68	0xbc4e7aac	-0.012602489
69	0xbc98cfdd	-0.018653804
70	0x3cdc65ba	0.026903976
71	0x3cc6a002	0.02424622
72	0xbd024795	-0.031806547
73	0xbc1d800c	-0.009613048
74	0x3c8d6dd5	0.017264286
75	0xbd0b5d1d	-0.034024347
76	0x3cbd6045	0.023117194
77	0xbcd54529	-0.026033955
78	0x3ba3042f	0.004974864
79	0x3cb3f201	0.021965982
80	0xbbd46093	-0.006481239
81	0xbcf92646	-0.030413758
82	0x3c3886c2	0.0112625975
83	0xbcded221	-0.027199807
84	0x3bf421d6	0.0074503226
85	0x3badcd21	0.0053039943
86	0xbcf7e7e9	-0.03026195
87	0xbd05e6b9	-0.032690737
88	0x3cb84800	0.02249527
89	0xbd04aee0	-0.032393336
90	0xbc88b43e	-0.016687509
91	0xbcc31f89	-0.023818748
92	0xbb452699	-0.003008282
93	0x3ca74de4	0.020422883
94	0xbd26763e	-0.04064011
95	0x3a095eef	0.00052402815
96	0xbb10ff29	-0.0022124744
97	0x3d0d1af4	0.034449533
98	0x3cb85b23	0.022504395
99	0xbcbab0d4	-0.022789396
100	0x3ca5cd82	0.020239595
101	0x391d9f77	0.00015032092
102	0x3c4e582d	0.012594265
103	0x3cdfd87b	0.027324906
104	0xbb597fbb	-0.0033187706
105	0x396d6122	0.00022638266
106	0xb92a4885	-0.00016239479
107	0xbd252bd6	-0.04032501
108	0xbc973d92	-0.018461976
109	0x3c1acaff	0.009447812
110	0x3c427452	0.011868553
111	0xbb53f2bc	-0.0032340726
112	0xbd2e62c7	-0.04257467
113	0xbd1b5849	-0.037925992
114	0xbc0a5276	-0.008442512
115	0x3cadef52	0.02123228
116	0xbbc0bbac	-0.005881747
117	0xba1197ae	-0.0005553913
118	0x3d07f2ff	0.033190724
119	0x3ba39de0	0.0049931854
120	0x3c67a7b5	0.014139106
121	0xbccaa044	-0.024734624
122	0xbccc21f2	-0.02491853
123	0xbca7cdd6	-0.020483892
124	0xbb8bd6b3	-0.0042675375
125	0x3c0df684	0.008664731
126	0xbcdc7843	-0.026912814
127	0x3cd0b7b2	0.025478218

fc2.weight f4 [10, 128]
0	0xbcc24f17	-0.023719354
1	0x3decd94f	0.11564886
2	0xbd7d9c50	-0.06191665
3	0xbd8a8f93	-0.06765666
4	0x3e2c866c	0.16848153
5	0xbc1151d6	-0.008869609
6	0xbe5ef266	-0.21772155
7	0x3d5b417f	0.05352926
8	0x3da2cf89	0.079497404
9	0xbc856008	-0.016281143
10	0xbd22a1ba	-0.039705016
11	0x3d5d6626	0.054052494
12	0x3ded7f4e	0.11596547
13	0xbb5a08bb	-0.0033269364
14	0x3df444e4	0.11927202
15	0xbd700dda	-0.05860696
16	0xbe9a1f77	-0.3010213
17	0xbcedb510	-0.029017001
18	0x3e00f3a8	0.12592947
19	0x3d74d0fc	0.059769616
20	0x3d354bca	0.04426173
21	0xbd4f6fc4	-0.050643697
22	0x3dff7b6a	0.12474711
23	0x3d511e0d	0.05105405
24	0xbd8a105d	-0.06741402
25	0xbdcda35b	-0.10040923
26	0x3c6b9f50	0.014381245
27	0x3d8e3a29	0.06944687
28	0xbd92fd26	-0.071771905
29	0x3e0b8022	0.13623098
30	0x3e086857	0.13321052
31	0x3db7e74f	0.089796655
32	0x3de92caf	0.11385476
33	0xbb905bc7	-0.004405472
34	0xbe652a2a	-0.22379366
35	0x3de96a9a	0.11397286
36	0xbd07de82	-0.033171184
37	0xbd00ec18	-0.031475157
38	0xbdb4c6f7	-0.08827012
39	0xbdbf7c38	-0.09349865
40	0xbdecfbbd	-0.11571453
41	0xbd803c64	-0.062615186
42	0x3d9a5c7c	0.07537171
43	0x3d22fe67	0.0397934
44	0xbe117fba	-0.1420888
45	0xbd528912	-0.05140025
46	0x3c35f7b2	0.011106418
47	0xba6e58c5	-0.0009092207
48	0x3dcc086e	0.09962545
49	0xbd3345fb	-0.04376791
50	0xbc57e590	-0.013177291
51	0xbc260393	-0.010132688
52	0x3b4b321d	0.0031005212
53	0x3e12e29d	0.14344259
54	0xbd870639	-0.06592984
55	0xbd04df0d	-0.03243928
56	0x3d8dc234	0.06921807
57	0xbcdca986	-0.026936304
58	0x3def6128	0.11688453
59	0xbc69fbad	-0.014281196
60	0xbe587391	-0.21137835
61	0x3d346254	0.044039086
62	0x3d39783d	0.045280684
63	0xbd4c7136	-0.049912654
64	0xbe2db544	-0.16963679
65	0xbde33683	-0.11094382
66	0x3d165277	0.03669974
67	0x3d97d720	0.07414079
68	0x3be55834	0.00699904
69	0xbd673618	-0.056448072
70	0x3dec1220	0.115268946
71	0xbe080a32	-0.13285139
72	0x3ca3a5ee	0.019976582
73	0xbdb24ddb	-0.08706256
74	0xbccced46	-0.025015485
75	0xbe19b626	-0.1501089
76	0x3ddd519d	0.10806582
77	0x3e191545	0.1494952
78	0x3de1e9d7	0.110309295
79	0xbd493d78	-0.049130887
80	0xbd0e0b9e	-0.034679048
81	0x3e1bed55	0.15227254
82	0xbc59d324	-0.013294969
83	0xbdbb2664	-0.09138182
84	0xbd4c0bef	-0.04981607
85	0x3e136bdc	0.14396614
86	0xbd8c2dc7	-0.06844669
87	0xbe875212	-0.26429802
88	0xbda2a4a5	-0.0794156
89	0x3d52c8a3	0.051460873
90	0x3ae87d16	0.0017737474
91	0x3d00fad4	0.03148921
92	0x3c038eb6	0.00802963
93	0xbd0df52c	-0.034657642
94	0x3c32a6af	0.010903998
95	0x3bd36fc0	0.0064525306
96	0xbe8f87c8	-0.2803328
97	0x3de05936	0.10954516
98	0xbdce2722	-0.10066058
99	0x3d0e6909	0.034768138
100	0xbec0d7e7	-0.3766472
101	0x3da94756	0.082655594
102	0xbd8fd5f6	-0.07023232
103	0x3c1bbcbf	0.00950545
104	0xbe5a1843	-0.21298318
105	0xbdb225ac	-0.086985916
106	0xbeb138e7	-0.34613726
107	0xbd1477ae	-0.036246948
108	0xbd49e2eb	-0.04928867
109	0x3cfa54af	0.030557958
110	0x3dd11e31	0.10210837
111	0xbe4206f6	-0.18947968
112	0xbe448fa2	-0.19195417
113	0xbe8ac57b	-0.2710379
114	0xbbaa9b51	-0.0052065034
115	0xbd6bed3d	-0.057599295
116	0xbdefd804	-0.117111236
117	0xbe050c71	-0.12993027
118	0xbd7564fa	-0.059910752
119	0x3cfaa5a1	0.030596556
120	0x3e174e2d	0.14775915
121	0x3c85d611	0.016337426
122	0x3d58b8d2	0.052910633
123	0x3d1108fc	0.03540896
124	0x3e24b212	0.16083553
125	0x3b0f9dd1	0.0021914134
126	0x3c92c3ff	0.017915724
127	0xbe824147	-0.25440428
128	0xbd8a7e03	-0.06762316
129	0xbe333551	-0.17500807
130	0x3da476fc	0.08030507
131	0x3d762b11	0.060099665
132	0xbe236ac9	-0.15958704
133	0x3e1db6d9	0.15401782
134	0x3df007cc	0.11720237
135	0xbb2dfb68	-0.0026547555
136	0x3d87e008	0.066345274
137	0xbd207084	-0.039169803
138	0xbd2ee1b0	-0.0426957
139	0x3c993788	0.018703237
140	0x3e0335bc	0.12813467
141	0x3e942cad	0.28940335
142	0x3e1597a6	0.1460863
143	0x3d113977	0.035455193
144	0x3e29322a	0.16523042
145	0xbdb659f8	-0.08903879
146	0xbdd9b2f0	-0.10629833
147	0x3d0f6162	0.03500498
148	0xbd991725	-0.074751176
149	0x3cd473f0	0.02593419
150	0xbea2a3d2	-0.3176561
151	0xbda5a204	-0.08087543
152	0xbdaa1c5b	-0.083061896
153	0xbdea8764	-0.11451605
154	0xbc531529	-0.012883463
155	0x3e2d1aef	0.16904806
156	0xbd628642	-0.05530382
157	0x3e09da7a	0.13462248
158	0xbcf5992e	-0.029980268
159	0xbebb6622	-0.3660136
160	0x3baf30c2	0.0053463886
161	0x3d358286	0.04431393
162	0x3d0a6a34	0.03379269
163	0xbdbc86e4	-0.09205416
164	0x3ca05168	0.019570068
165	0x3d23820c	0.039918944
166	0xbda0962a	-0.078411415
167	0x3dd0405c	0.101685256
168	0xbdfdb24f	-0.12387525
169	0x3d825e41	0.06365634
170	0xbd03f0cd	-0.032212067
171	0x3d28e508	0.041234046
172	0xbd255174	-0.040360883
173	0xbdae6984	-0.08516219
174	0x3e3b5f6f	0.18298124
175	0x3d5785f9	0.052618
176	0xbdf3d665	-0.11906127
177	0x3ba31ca6	0.0049777804
178	0x3d91375c	0.07090637
179	0x3daea1ea	0.085269764
180	0x3d212353	0.03934033
181	0x3dafd117	0.085848026
182	0xbe1f19fc	-0.15537256
183	0xbd9842ef	-0.074346416
184	0xbea6fc7f	-0.32614514
185	0xbd8f059a	-0.0698349
186	0xbe9c7ad5	-0.30562463
187	0xbd623290	-0.055224
188	0xbe2daec0	-0.16961193
189	0xbb291256	-0.0025798283
190	0xbecfbdf8	-0.40574622
191	0x3dc9add4	0.09847608
192	0x3dc046d9	0.09388513
193	0xbdd09a88	-0.101857245
194	0xbd2cddd9	-0.042203758
195	0xbea02db9	-0.31284884
196	0xbd8406b2	-0.064465895
197	0x3dd2619b	0.10272523
198	0xbe513604	-0.20430762
199	0x3dcdca79	0.10048384
200	0x3d8dd073	0.06924524
201	0x3cfad25f	0.03061789
202	0xbd5dbae7	-0.054133322
203	0x3db856a9	0.09000904
204	0x3ad3893f	0.0016138925
205	0x3ddff65c	0.10935661
206	0x3e21e9d8	0.1581186
207	0x3d137cfc	0.036007866
208	0xbdcee0e1	-0.10101486
209	0x3e049e92	0.12951115
210	0xbd8acac6	-0.06776957
211	0xbd9e7240	-0.07736635
212	0x3d426c5e	0.04746663
213	0x3d218616	0.039434515
214	0xbd8ad9f4	-0.067798525
215	0x3e14f671	0.14547135
216	0x3d0e2544	0.034703508
217	0xbd7f53fe	-0.06233596
218	0xbd595af6	-0.053065263
219	0xbe235093	-0.15948705
220	0x3e8b9ef9	0.27269724
221	0xbe000837	-0.12503134
222	0x3c204729	0.009782591
223	0x3c2ba4c4	0.010476295
224	0x3dc84183	0.0977812
225	0xbde13ae9	-0.10997564
226	0xbe284665	-0.16433103
227	0x3d5ce74d	0.053931523
228	0x3d0503df	0.032474395
229	0xbe6e0c43	-0.23246865
230	0xbdfd5258	-0.123692214
231	0xbd8a136f	-0.06741988
232	0x3d9e0541	0.07715846
233	0x3ccedafa	0.0252509
234	0xbeae89ec	-0.340896
235	0xbcfeaccc	-0.031088255
236	0xbb0644a8	-0.00204877
237	0x3d07c346	0.03314521
238	0xbc05806a	-0.008148292
239	0x3ce29135	0.02765713
240	0x3e539cae	0.20665237
241	0x3d93b40e	0.07212077
242	0x3d8e54d6	0.06949775
243	0xbe6acd69	-0.2292992
244	0xbe1879fc	-0.14890283
245	0x3d8b7278	0.068089426
246	0x3d5e8efa	0.05433557
247	0x3eb0398d	0.34418908
248	0xbe2aa559	-0.16664638
249	0xbcbd7c4a	-0.023130555
250	0x3901c495	0.00012375631
251	0xbdc4a45a	-0.0960166
252	0x3c34fa4e	0.011046005
253	0xbc0b01aa	-0.008484283
254	0x3793a93d	1.7602573e-05
255	0x3df08e37	0.11745875

fc2.bias f4 [10]
0	0xbd891ece	-0.06695329
1	0xbdc184db	-0.09449168
2	0x3cf3c1d7	0.029755516
3	0x3d32a246	0.043611787
4	0xbd861185	-0.0654631
5	0x3c605c4b	0.013693879
6	0x3da84dde	0.08217977
7	0xbdd87c37	-0.10570567
8	0x3dcadb35	0.09905092
9	0x3d8341ee	0.064090595
