little_project/pytorch_learn/尝试手写数字识别/digit_recognizer.pth (torch, 918594 bytes, 12 tensors)

conv1.weight f4 [32, 1, 3, 3]
00000000: 7753 6c3d 3578 b4be b557 003d 1307 003e
00000010: 4967 8cbe 2357 9ebe 72d0 673e 70e7 ef3e
00000020: 9211 a93e e197 573d 7576 c43d 7f7e 4c3e
00000030: 9168 913e 7b88 593e 351d 7cbe a671 0c3e
00000040: 07c1 a2be 1a7a 5bbe d573 34bd e264 4c3e
00000050: 4e11 b93e 0372 fbbc e806 ad3c 6cc0 ad3e
00000060: 1ba2 333c 9e67 6b3d cca9 b63e d27b 443e
00000070: 473e 073f 3756 7d3e 0149 dd3e 7945 14be
00000080: 4bc1 d3be f1a1 c1bd a8d4 dabd eaba d7be
00000090: 2610 dd3e 1b91 d3bc a84f ce3d 920c a73b
000000a0: 8d21 393e c367 d93d ae52 a7be d58a 2abe
000000b0: 8bf3 95be acaf e0bd e257 bcbe 4176 d03d
000000c0: 8ee3 633d 95dd 6dbe 52d3 c83e 4a83 9f3e
000000d0: a0be 903e b3b4 a8bd f48d 5e3e 67a4 a2bd
000000e0: c7da 863d e920 bc3e 0bc9 90bd c54e aebe
000000f0: 1b5d a73e 72ce d4be e265 863d 93cc 98bd
00000100: 84bc fa3d 07e2 9ebe 1232 8e3e 2ab4 f5bc
00000110: 64c9 a7be c998 85bc 5ae4 37be ab9e 09be
00000120: 1131 8dbd 30d8 b1be d3f6 783e 4bb6 e3be
00000130: b9bd 603e 5f2a 793e 8bfc 703b b5af a8bc
00000140: 173d b13e 445c f3be 74c1 40be 5ffd b93e
00000150: 73f4 a83d 4d0f f53e f971 6c3d baea 4a3e
00000160: bf96 493c 1376 dabe e6d2 b6be 8b5e af3d
00000170: aa25 9ebe 7724 5e3e 34c7 9f3e 7993 943e
00000180: 70b8 c93d cfc5 1b3c e1c2 c1bd 4840 07bf
00000190: fa15 db3d 0916 c53e 0393 60bd 062c cd3e
000001a0: f0cf 6d3d 127b fa3c 0a81 563e 4c0c 44be
000001b0: 74e3 903e 01df 00bf e5bc 25be faff 183f
000001c0: f4e2 a0bd ee70 87be e86c 463e 19c9 e43e
000001d0: 61cb ac3e ce4d 4bbe eb18 cfbe 3e4a c5be
000001e0: 0d7c bebd f252 f03d c6cb 453e 157e d43e
000001f0: a5f2 7a3e e111 b0bd 225f 8f3e 18f6 023e
00000200: e52f d23d 1724 a7bd 7faf 813e deff c7be
00000210: 7b7e b93e c6bb f63e 9d13 a9be 5fa8 1b3e
00000220: 023d 74be d942 13be 66d5 77be 58b3 333e
00000230: a9fb 9ebe a34c 47be 693c bdbe 5798 f5bd
00000240: e089 cabd 6254 e63b d625 1bbe d16a 1b3e
00000250: 8493 813e cc75 ba3e 3a74 55be cd78 6abd
00000260: 51b1 a2be 310b 99b5 a995 e0be b507 cebe
00000270: 26ff 393e 1e32 923e 5f1e 183d 4ae5 763d
00000280: d22c 883d 9c50 b63e 7e0a 093e f2a4 573e
00000290: 05e6 d53e 835a 99be 1523 89be 253f aa3e
000002a0: 1070 fbbd 86dd a4be 6a2d dabd 1e94 313e
000002b0: 11c1 933e 93d0 c6bd aa19 5f3d 181a ab3e
000002c0: 4388 e73e abd2 e3be 3364 8bbe 8843 893e
000002d0: 24e2 b83e 4350 af3d 08d1 d13e f7f7 0a3e
000002e0: 6743 b33e 54e9 cf3d 1503 01bf 8d8a f3be
000002f0: aa9c a9be ecf1 993e 38a6 d63e 499b cd3c
00000300: 15e5 463e 0a08 8d3e 3614 2e3e 59e6 35be
00000310: 17c8 cf3e 84bd 3ebe a9f7 063f a394 b33e
00000320: 6e2e adbe bea0 1a3e 061d b5be 176d eebd
00000330: f067 933e 809c 60be 3f16 62be 59b3 863e
00000340: 5886 3abd 0935 91be d9fd 8c3e d3f0 503e
00000350: c675 83be 507d 37be 71b9 ea3e 94a4 08be
00000360: d96a 8dbe dbd8 48be 2e3f 28be fd8f 2abe
00000370: 00a1 8abe 9ee3 19be aa83 3dbe b72b ffbd
00000380: e886 b0bd 1624 8abe f26b adbe 14b6 c63e
00000390: 294d b6be db41 8e3e 360d 003e 568f 5cbc
000003a0: 56bd 11be 2f7e b73e daea b33e 17e0 763e
000003b0: 2906 c1be 3aef c93e 4bca aebe 6192 75be
000003c0: 42c1 64be 57b1 933e 2591 a6be 473b 0ebe
000003d0: c4fe e5be 9349 a6be 10da a23e c6b3 43be
000003e0: 19a1 873e 583f f53e 5bd8 603e 73d2 c13e
000003f0: 5aed 80bc e86a 963d 3cbc ea3e 091f 8bbe
0.057696786 -0.3524796 0.031333644 0.12502699 -0.2742255 -0.30925855 0.2263811 0.4685626
0.33021218 0.052635077 0.095929064 0.1997013 0.2840009 0.2124347 -0.24620517 0.13715228
-0.31787893 -0.21433297 -0.04405578 0.19960359 0.36146015 -0.030694013 0.021121457 0.3393587
0.010963942 0.057471864 0.3567642 0.19187859 0.528294 0.2473992 0.4321976 -0.14479627
-0.41358408 -0.09454716 -0.10685092 -0.42134792 0.43176383 -0.025826028 0.10073787 0.005097934
0.18079205 0.10615494 -0.32680267 -0.16654523 -0.2928737 -0.10971007 -0.367858 0.10178805
0.055636935 -0.23229058 0.39223725 0.31154853 0.28270435 -0.08237591 0.21733838 -0.079415135
0.06584697 0.36743858 -0.07069596 -0.3404447 0.3268822 -0.41563755 0.06562401 -0.074608944
0.12242988 -0.3103182 0.27772576 -0.029993135 -0.32770836 -0.016308205 -0.17958203 -0.13439433
-0.06894124 -0.3473525 0.24312906 -0.44475016 0.21947373 0.2433257 0.003677162 -0.020591596
0.3461692 -0.4753133 -0.18823797 0.3632612 0.0824975 0.47863236 0.05772588 0.19816104
0.012304007 -0.42668208 -0.35707778 0.085629545 -0.3088811 0.21693598 0.31206667 0.29018763
0.09849632 0.00950761 -0.09460998 -0.5283246 0.10697551 0.38493374 -0.0548277 0.4007265
0.058059633 0.030576263 0.20947662 -0.19145316 0.28298533 -0.50340277 -0.16185339 0.5976559
-0.07855788 -0.26453346 0.19377482 0.44684675 0.33748916 -0.19853899 -0.40448698 -0.38533205
-0.093010046 0.117345706 0.19316015 0.41502443 0.24506624 -0.0859716 0.28002268 0.1278919
0.102630414 -0.081611805 0.25329205 -0.390624 0.3622931 0.48190135 -0.33022776 0.15200947
-0.23851398 -0.14380969 -0.24202499 0.17548883 -0.31051376 -0.19462828 -0.36960152 -0.11991947
-0.09889579 0.007029102 -0.15151152 0.15177466 0.25307858 0.36417997 -0.20845118 -0.05724411
-0.31775907 -1.1402645e-06 -0.43864182 -0.40240255 0.18163738 0.2855386 0.03713834 0.06027726
0.06649174 0.35608375 0.13382909 0.21059015 0.41777053 -0.29951867 -0.26784578 0.332513
-0.122772336 -0.3220026 -0.10653193 0.17341658 0.28858235 -0.09707751 0.054467835 0.33418345
0.45221147 -0.44496664 -0.27224883 0.26809335 0.36110032 0.085602306 0.4097979 0.13571154
0.3501236 0.10151926 -0.5039533 -0.47566643 -0.33127338 0.30067384 0.4192369 0.02509846
0.19423325 0.27545196 0.16999897 -0.17763652 0.40582344 -0.18626982 0.5272165 0.35074338
-0.33824486 0.15100381 -0.35373706 -0.11641901 0.28790236 -0.219347 -0.22078799 0.26308706
-0.045538276 -0.28360775 0.2753742 0.20404367 -0.25675792 -0.17918897 0.45844606 -0.13344032
-0.2762058 -0.19613974 -0.16430351 -0.1665649 -0.27075958 -0.15028235 -0.18507257 -0.1245951
-0.08619481 -0.26980656 -0.33871418 0.3881079 -0.35605744 0.2778462 0.1250504 -0.013461908
-0.14232382 0.35838458 0.35140115 0.24108921 -0.37700012 0.39440328 -0.34138712 -0.2398162
-0.22339347 0.28846237 -0.3253261 -0.138898 -0.44920933 -0.32478008 0.31806993 -0.19111547
0.26490095 0.4789989 0.21957533 0.37855873 -0.015738178 0.073446095 0.45846736 -0.27172115

conv1.bias f4 [32]
00000000: 569a 923e ee2b 103e e2f6 c23e 454d 2e3e
00000010: 988e d7bc 540e 5a3e 072b dc3d 02ef 37bd
00000020: d45b 343e e648 233d 0952 a73e 757a 403d
00000030: bf24 2abe ff09 5dbe a442 0b3e 6e5f 3fbe
00000040: 6f9b b9bc 40c4 18be c3e1 2fbd df58 843e
00000050: 2ec4 093e 1ff0 843e 5047 5cbe 0b49 9a3e
00000060: 9c97 98bd add3 ed3c a4e5 73be e83f 2dbe
00000070: 76c4 943c d8bb aebe 5b39 473e 73dd 673e
0.28633374 0.14079258 0.38078982 0.17021663 -0.026313111 0.21294528 0.10750394 -0.04490567
0.17613155 0.039864443 0.32679775 0.046991784 -0.1661558 -0.21585844 0.1359964 -0.18688747
-0.022657124 -0.14918613 -0.042939913 0.25849053 0.13453743 0.25964448 -0.21511579 0.30133852
-0.07450792 0.029031599 -0.2381807 -0.1691891 0.018160086 -0.34127688 0.19455473 0.2264307

conv2.weight f4 [64, 32, 3, 3]
00000000: 36c0 1bbc 2dff 683d 306e eb3d d60f 5a3d
00000010: 0d1d f33d 6b5b 553d 948b d3bd b6ed ccbd
00000020: 893d fb3c 5522 f7bc fa0b 003d 4d55 c3bd
00000030: c822 66bc 1c59 ffbb 1532 75bb bf01 b63c
00000040: 7646 ff3c 10ae 413d f65d 553b dd3c f1bd
00000050: fe21 08be 1e6b 90bd 6ae0 aabd e22c 64bc
00000060: 6566 3fbd e75f 59bd 65b2 0abd bdad e73c
00000070: 6393 a23d 44b2 20be 77a5 0cbd 0fca 493b
00000080: d557 1fbc 4496 2e3e a03c df3d 5cb4 3f3d
00000090: 69cf b8bd 57e6 b83b 60c0 9fbc 8ab4 26bc
000000a0: 0dd2 d43c d864 ebbb dea4 233e c62e 873d
000000b0: 0797 023e a544 c5bc 3912 9b3c 0e80 133d
000000c0: e429 b13d 790e 943d 1c0e 2c3d 3d0c 33be
000000d0: 2a3a eebd 8d7a e3bc 8b20 363d c258 c9ba
000000e0: 7635 cbbd a9d2 89bd 3601 ddbd 534e 35bd
000000f0: 7846 5dbd 6b06 8fbd 3fa8 8cbc 661d 053d
00000100: 57f4 1e3d 7a35 7d3d 7b7e 84bd 5f94 bbbd
00000110: a654 8cbd 4727 a53c e9af 22bc 7455 c1bc
00000120: 26c7 653c 3bfe 54bc 427c 153d 830c d6bd
00000130: 4fed a6bd 0bb7 343a 86d0 36be c0be 0ebe
00000140: aa14 2abc 32be 823d 9f58 4fbd 9159 9abc
00000150: 61bf efbb b7cb 7a3c 1170 bf3d 13a5 9bbd
00000160: d6d6 e93b ff39 7e3d fe32 8d3d 19d0 6abc
00000170: 8a6b bd3c 5a62 1a3e 5c7c ca3d 6e1c b83d
00000180: b791 99bd 884d 91bd 0025 7fbd 6412 143e
00000190: 9a07 acbd 6b47 3bbc 2fe2 29bc 5b2a 79b9
000001a0: 392e 0d3d d2ba 23be 0a24 16be f683 123b
000001b0: 7028 6cbc 6383 863d 3894 73bd b4dd 533e
000001c0: 63e6 f43d 6623 6c3d 68c8 15be 20d4 5bbe
000001d0: 51e9 fabd 45e9 cdbb 6750 6a3c cf33 cd3d
000001e0: 4cc1 163e bf23 353e 2ff3 b33d f5fc fdbd
000001f0: 36c5 73bd aee0 32bd 3907 213b 9309 84bd
00000200: 1276 e8bd 55a3 ffbd 9b4f d9bd cbfa f1bd
00000210: f93b 9bbd 0f05 f9bd 3062 f0bd 7c91 7ebb
00000220: e371 d3ba 1f06 3f3d a7e7 14bc 1e61 ddbc
00000230: 7ee8 aebd 8673 3a3c 0eea b03d 9014 a53c
00000240: a791 b63b ac35 043d 83c6 e73b 16a5 d73c
00000250: 8714 e83d 7f7e 9d3d 9220 d23d a396 303e
00000260: 6efb f13d 0fe2 1dbc 9081 933d 21f7 ab3d
00000270: 3e7d 1c3e 3ffb 0d3e 8e84 1e3e 0c0b edbd
00000280: 0007 f1bc 3c95 76bd 2645 5bbe 1fdd 93be
00000290: ac62 a8bd 9bf5 c7bc df9b 263b c1a6 673d
000002a0: 2844 763e f636 803e 22f9 493e 1b35 2dbe
000002b0: 9c8c 39be 4f50 bcbd 11cb fd3d 3c06 1e3d
000002c0: 9d8c 873c c622 fa3d 8489 e53d 7d5a 0b3e
000002d0: 5f4d b0bd d52a 6cbd 1611 2bbe 462d 2a3e
000002e0: 3ba4 df3d 8feb c13d f3ed 523e 05b7 353e
000002f0: 6ca2 493e ced9 973c 7cbb 21be 22d3 01be
00000300: 1ecd 6b3a 10fa cabc 8816 81bd e77d 87bd
00000310: 84da 64bc ef76 e3bb fa17 973d c227 9b3d
00000320: 61f8 8cbd 1279 23be 63d9 53be 2712 12be
00000330: 8d73 583d 7976 b23c 4780 6f3a 1bc1 7fbd
00000340: 5957 85bd e4c6 40bd 9d4b ebbc 45ad 763d
00000350: a6a1 013d 15fd 00bd c8a1 86bd 0f13 8b3c
00000360: 698f e4ba 64c2 45bd cd1c c23d 4465 09bc
00000370: 4bd9 f7bc 58fe 81bd b69d 633d e5a6 273d
00000380: a7a3 633c ac7e 6cbc b4e2 90bd f2cf c3bc
00000390: baaf 0dbe 3da1 15bd 793b 27bd 4904 37be
000003a0: 2e38 91bd 9a83 bbbd 7572 043d 507a 393d
000003b0: 6e06 ccbd 2873 80bd 6c14 29be 8f44 51bd
000003c0: c366 09bd a261 dabc c645 88bd ccd9 24bb
000003d0: c889 3ebb 61ec 8f3d dd7d 4e3e 4dde 483e
000003e0: dda9 da3d 72be c4bd e51c 3ebe e3cb 24bd
000003f0: 863c 98bd b80d 0dbe 1d85 9abd 8146 07bd
-0.009506276 0.05688398 0.11495626 0.05323776 0.11870775 0.052089136 -0.10329357 -0.10006277
0.03066899 -0.030167738 0.03126142 -0.09537754 -0.014046378 -0.007792605 -0.0037413884 0.02221763
0.031161528 0.04728514 0.0032557226 -0.11779187 -0.13294217 -0.07051681 -0.08343585 -0.0139267165
-0.04672851 -0.053069975 -0.033861537 0.028281087 0.07938268 -0.15693003 -0.034337487 0.0030790602
-0.009725531 0.1704951 0.10900235 0.046802863 -0.09023935 0.005642693 -0.019500911 -0.01017488
0.025979066 -0.0071836524 0.1598086 0.06600718 0.12752925 -0.024080584 0.018929588 0.036010794
0.08650568 0.07229323 0.042005643 -0.17485137 -0.11632188 -0.027768398 0.04446463 -0.0015361535
-0.09922306 -0.06729633 -0.107912466 -0.04426415 -0.054022282 -0.06983646 -0.01717007 0.03249874
0.03880724 0.061818577 -0.06469437 -0.09159159 -0.06852083 0.02016033 -0.009929636 -0.023600318
0.0140245315 -0.013000066 0.036495455 -0.10451605 -0.08150732 0.00068937306 -0.17852983 -0.13939953
-0.010380903 0.06383933 -0.050621625 -0.018841537 -0.0073165153 0.0153073585 0.09347547 -0.07599845
0.007136206 0.062067028 0.068944916 -0.014331841 0.023122568 0.1507658 0.09887001 0.089897975
-0.07498496 -0.07094866 -0.062291145 0.1446014 -0.083998874 -0.011430602 -0.010368868 -0.00023762269
0.03446791 -0.15989235 -0.14662185 0.0022356487 -0.014413938 0.06568029 -0.059467524 0.20690042
0.11958005 0.057650946 -0.1462723 -0.21467638 -0.12251533 -0.0062839114 0.014301396 0.10019647
0.14722174 0.17689417 0.08786618 -0.12401763 -0.059514247 -0.043671302 0.0024570955 -0.06447139
-0.11350645 -0.12482325 -0.10610887 -0.11815413 -0.07579798 -0.12159168 -0.11737478 -0.003884404
-0.0016131963 0.046636697 -0.009088433 -0.027023848 -0.08540438 0.011380082 0.086383924 0.020151407
0.0055715623 0.032277748 0.007073225 0.026323836 0.1133204 0.07690143 0.102601185 0.17244963
0.118155345 -0.009636416 0.072024465 0.083967455 0.15282151 0.13865374 0.15480253 -0.11574373
-0.029422283 -0.060200915 -0.21413097 -0.2887964 -0.08221945 -0.024409106 0.0025422496 0.056555513
0.24049437 0.25041932 0.19723943 -0.1691479 -0.18120044 -0.09195005 0.123922475 0.038580164
0.016546542 0.12213664 0.1120787 0.13608737 -0.08608507 -0.057658035 -0.16705737 0.16618833
0.10919996 0.09468757 0.20598583 0.17745598 0.19690865 0.018536475 -0.15794176 -0.12678197
0.00089951034 -0.024777442 -0.063031256 -0.06615811 -0.013968114 -0.006941668 0.0737762 0.075759426
-0.06883312 -0.15964153 -0.20688395 -0.14264737 0.052844573 0.021785008 0.0009136241 -0.06244002
-0.06510801 -0.047064677 -0.028722579 0.060223836 0.0316483 -0.031491358 -0.06573826 0.016976861
-0.0017437759 -0.04828109 0.094781496 -0.00838596 -0.03025498 -0.0634734 0.055570327 0.040930647
0.013893998 -0.014434498 -0.0707449 -0.023902867 -0.13836566 -0.036530722 -0.040828202 -0.17872728
-0.070907936 -0.091559604 0.032335717 0.045282662 -0.09962164 -0.06271964 -0.16511697 -0.051090773
-0.033545267 -0.026657883 -0.06653933 -0.002515423 -0.0029073823 0.070275076 0.201652 0.19616051
0.1067693 -0.09606637 -0.1856571 -0.040233504 -0.07433419 -0.13774765 -0.075449206 -0.033026222

conv2.bias f4 [64]
00000000: 9d2e 5bbd 8526 b7bc d118 3cbc 9f8d fd3c
00000010: 0122 8abd c00f 35bc 34fe 4abd 1d54 e83b
00000020: f335 7ebc 76e0 503c 9b24 38bc 1240 a3bd
00000030: 3415 04bc 6ffc 44bd 790c 84bc 50c8 013d
00000040: e456 94bd 7f22 18bd 7624 9c3c 6a5f 0bbd
00000050: f8af 10bd 8d15 1cbd ac4f 043c f46c 0ebd
00000060: d88b 5cbd 019c cfbc 4ea7 93bc 24d2 0f3d
00000070: 9ec6 77bd 1594 1f3c 7373 bf3c 3ed0 9dbd
00000080: 5f1c b63b f340 193d 9f40 42bd 1083 8b3c
00000090: f9dc 2fbd 8698 41bd ef49 71bb cb62 f73b
000000a0: 3d72 a73b a33b 37bd 2d23 2c3d ef0b 8fbd
000000b0: dc6f 0f3d f4b9 a43b 692d c63c d73b e5bc
000000c0: a95a 45bd f6ce b23c ea19 f1bb c552 a6bc
000000d0: 1108 e4ba 53dc 81bd d08a e9bc 16aa 60bd
000000e0: 7abc 4dbd 170a 4fbc 2e50 38bd 2af2 003c
000000f0: 0159 2cbd d440 0d3c b24f 043b 5db1 c33c
-0.05351125 -0.022357235 -0.011480526 0.03095132 -0.06744767 -0.011051118 -0.049558833 0.007090105
-0.015515792 0.012748828 -0.011239196 -0.07971205 -0.008061696 -0.048092302 -0.016119229 0.031685174
-0.072431356 -0.037142273 0.019060355 -0.03402654 -0.035324067 -0.03810649 0.008075636 -0.034771875
-0.053844303 -0.025342943 -0.018024113 0.035112515 -0.06049215 0.009739895 0.02337048 -0.07705735
0.0055575813 0.037415456 -0.04742491 0.017030269 -0.042935345 -0.0472646 -0.003681775 0.007549619
0.005110054 -0.04473461 0.042025734 -0.06984698 0.035018787 0.00502705 0.024191575 -0.027982635
-0.048182163 0.021827202 -0.0073578255 -0.02030314 -0.0017397424 -0.06340852 -0.028508574 -0.054849707
-0.050228573 -0.012636683 -0.04499834 0.007870236 -0.04207707 0.008621413 0.0020189104 0.023888284

fc1.weight f4 [64, 3136]
00000000: 9786 e83b 9018 9dbc 561f 1b3c 1e08 023c
00000010: 01e8 c2bc cacb 9abb 3105 97bc c31d 1bbb
00000020: aaeb 38bb 2ba5 60bc 120e 94bc 2d87 973b
00000030: 0780 3a3b 70b3 7c3a c248 403c 1fa6 d23b
00000040: ce09 07bc 9d6b 04bc 3e61 86bc 8c8d 6dbc
00000050: 97e3 16ba 70bc 17bb d045 fd3b 4abc 9a3c
00000060: 638c 1f3c dad8 23bc f3ac ebbb cd01 05ba
00000070: f3cd 4abc 0356 f2bb 8c83 efbb 7b12 acbc
00000080: d6b8 38b8 a1fd 64bc 716f 4e3c 4a27 edba
00000090: b046 14bc 53de 3cbc e790 0fbc 38ab 8bbc
000000a0: 6741 f5bb ed57 713a 1f6b 833b 307e afbc
000000b0: 64a7 60b9 2284 81bc 6b33 89ba dda6 4cbc
000000c0: f6a6 323c 62b7 24bc c0cb bd3b 0046 413c
000000d0: f01c 3d3c 582d d53b 10fd 963c 8a87 323c
000000e0: 7680 513c d512 d7bb 420c 21bc a02d 923b
000000f0: 7445 e8ba 32a9 b23c fa52 a3bc 8b4a 9c3c
00000100: 5c3c 0e3c 7b1a b7b9 447b 54bc a6d0 6f3b
00000110: d9e8 bebc effb 0e3c ef3c 03bc 0d63 5dbc
00000120: 5718 1abc 9a33 42bc 0d9e e7b9 4a9a 343c
00000130: 328a 1dbb 0848 f7ba 4f65 693b 0cc0 383c
00000140: 7d6e dfbb f1f9 d03b 44a0 773c 28a2 abbb
00000150: 4dd8 63bc 5526 053a e8e1 693b f3bf 1d3c
00000160: 5813 183b 12de 8ebb 3691 3dbc bcd5 27bc
00000170: 13a7 21ba 6a9a be3a c4e2 8fbc 616f 8c3c
00000180: ef41 8d3c d838 e73b 063b 163c e0a9 533a
00000190: 208d d53a a44a 1ebb c0f0 0abc 90fa d7ba
000001a0: 7e2a 66bc c041 3bbb 7074 c23b a6a9 f0bb
000001b0: 53f8 39bc 2729 8abc 6ed5 433c 03f1 1cbc
000001c0: 5886 6cbc 38fd 833b 8089 10bb 7c09 85bc
000001d0: 0037 283a e61c 92bc 3a35 753c 52ea bfbb
000001e0: 6099 b8ba dfd0 85bc 5e77 423c 8ce5 73bc
000001f0: 3858 a2bb bcc9 813b 0c3f 33bc b025 14bb
00000200: f668 4e3c 6e06 87bc cc9f 15bc 0a66 10bc
00000210: e432 20bb 78a1 49bc f855 79bb 0a5b 443c
00000220: e018 99ba 8c8e 69bc f0f6 353c e50d 833c
00000230: 70f0 c63a 303e 4a3c e096 0b3c 8372 2dbc
00000240: aa0e 51bc 40ca fdbb 4cdb 113c f8c8 23bb
00000250: 1e90 823c 21af 1bbc 9665 abbc 8982 17bc
00000260: c227 8fbb e3ed dcbb 23c0 64bc b30f 1d3c
00000270: 788d 323c 08f8 223c 04f7 4dbb b2eb 123a
00000280: fb23 d4bb 404f 7dba e8e0 f23b 047e 90bc
00000290: 8d2c 8a3c b835 4ebc ad97 953c 37c3 e73b
000002a0: 56c0 533c 0cb2 293c 4ec8 29bc 6914 ed3b
000002b0: bb9b 4bbc 3bbd c0bc 8074 cdbb 4a88 7d3c
000002c0: c006 b4bb c63b b2bc 70fd 93bc 1ebc a1bc
000002d0: eb06 81bc 1a96 123c fca4 0abc a29d 673c
000002e0: 8398 7cbc 8f97 b2bb 7206 023c 39fe 853c
000002f0: f0f7 20ba 7f84 88bc d114 63bc 9493 4aba
00000300: 1dbf 3bbc f934 a5b9 b214 be3c 018b 2a3c
00000310: a1a3 2a3c cef9 19bc 0b04 5a3c 4db7 0c3b
00000320: 1b3e 5fba 3017 a43b 8bd9 b93b 2d36 4bbc
00000330: 346d a9bc a968 b1ba f400 263b e97b ac3c
00000340: daaf 813a 41ba 6d3b ce24 043c ee15 36bc
00000350: 48e9 983b 08fc 0fbc 3f1d b3bc d6f6 8c3b
00000360: c728 dfbb ee38 1f3c ae16 87bc e97e 16b9
00000370: d04d 4dbc 3efa 61bc 10fb f73b db27 b3bc
00000380: f394 a7bc 4a7a 56bc 7f73 adbc c4dd 083b
00000390: d796 aabc 2a23 4b3c ab84 573a 38f6 b03b
000003a0: 6f27 5cbb 3ab4 a1bb bc86 66bc af30 f0ba
000003b0: f9b9 523a 862f 09bc 3cee 7cbc 1180 10bc
000003c0: 4588 b7bc 93e1 c33b df10 c03c eecb b3bb
000003d0: 7013 743b 1714 073c a491 a5bc c99d 243a
000003e0: c4d8 4ebc b054 4bbc 6164 51bc 0ac2 cfbb
000003f0: fbb0 bebb 8d7d bfbc 6cf4 483b 0346 0cbc
0.0070961225 -0.019176751 0.00946792 0.007936506 -0.023792269 -0.0047240006 -0.018435093 -0.0023668862
-0.0028216639 -0.013711254 -0.018073115 0.0046242685 0.0028457658 0.00096397754 0.011736097 0.0064284946
-0.008242084 -0.008082298 -0.01640379 -0.014499079 -0.00057559594 -0.002315309 0.0077292696 0.018888611
0.009738061 -0.010000432 -0.007192248 -0.00050738157 -0.012378204 -0.0073955073 -0.007309383 -0.021004906
-4.404116e-05 -0.0139764855 0.012599812 -0.0018093374 -0.009050056 -0.011527616 -0.008762575 -0.017049417
-0.007484603 0.00092065224 0.0040105726 -0.021422476 -0.00021424663 -0.015810076 -0.0010467594 -0.012490955
0.010904064 -0.0100534875 0.005792111 0.011796474 0.011542544 0.0065056495 0.018431216 0.010896573
0.012786975 -0.0065635242 -0.009829583 0.0044610053 -0.0017720894 0.021809194 -0.019937027 0.019078514
0.008681383 -0.0003492421 -0.012968842 0.003659287 -0.02330439 0.008727058 -0.008010133 -0.013512385
-0.009405217 -0.011853123 -0.0004417751 0.0110231135 -0.002403867 -0.0018866071 0.0035613363 0.011276256
-0.006818591 0.0063774516 0.015113894 -0.0052378364 -0.013906551 0.0005079259 0.003568763 0.009628284
0.002320489 -0.004359969 -0.0115702655 -0.010243829 -0.00061665586 0.0014541869 -0.017564185 0.017142953
0.017243354 0.007056337 0.009169346 0.00080743246 0.0016292669 -0.0024153376 -0.008480251 -0.0016477872
-0.014048217 -0.0028573126 0.0059342906 -0.0073444424 -0.011350709 -0.016865326 0.011952741 -0.009578946
-0.014436327 0.0040279888 -0.0022054613 -0.016239874 0.0006416887 -0.017836045 0.0149663035 -0.0058567906
-0.0014083795 -0.016334949 0.01186928 -0.014886271 -0.004954364 0.003960816 -0.0109403245 -0.0022605471
0.012598267 -0.016482558 -0.009132337 -0.0088133905 -0.0024444396 -0.012306564 -0.0038045626 0.011984596
-0.0011680387 -0.014255177 0.011106238 0.015997836 0.0015177857 0.012343928 0.008519858 -0.010586384
-0.012759844 -0.0077450573 0.008902382 -0.0024991613 0.015937861 -0.009502203 -0.020922463 -0.009247431
-0.004368753 -0.0067422255 -0.013961825 0.0095862625 0.010897987 0.009946831 -0.003142775 0.00056045793
-0.006474016 -0.0009662993 0.007412065 -0.017638214 0.016866947 -0.01258605 0.018260801 0.007072832
0.012924274 0.010357391 -0.010362698 0.007235099 -0.012427266 -0.023527732 -0.0062699914 0.015474388
-0.0054939687 -0.021757018 -0.018065184 -0.019743022 -0.015750369 0.00894692 -0.008462187 0.014136704
-0.015417221 -0.005450196 0.007936107 0.016356574 -0.0006140461 -0.016664742 -0.0138599435 -0.00077276793
-0.011459139 -0.0003151072 0.023203228 0.010409118 0.010414989 -0.009397937 0.013306628 0.002147156
-0.00085160293 0.005007647 0.005671685 -0.012403053 -0.020681955 -0.001353522 0.0025330158 0.021055179
0.0009894327 0.0036274346 0.008065416 -0.011113627 0.004666481 -0.008788116 -0.021864532 0.004301886
-0.006810281 0.009718163 -0.016490307 -0.00014352392 -0.012530759 -0.013792573 0.007567771 -0.02186959
-0.020456767 -0.013090679 -0.021173237 0.0020884136 -0.02082388 0.0123985205 0.0008221368 0.0054004453
-0.003359284 -0.0049348148 -0.014070209 -0.0018325056 0.00080385763 -0.008373147 -0.015437659 -0.008819596
-0.022403846 0.0059778183 0.023445545 -0.005486957 0.003724303 0.008244536 -0.020211048 0.00062796153
-0.012624923 -0.012410328 -0.01278028 -0.00634027 -0.0058194376 -0.023375297 0.0030663265 -0.008561614

fc1.bias f4 [64]
00000000: 3fe7 3f3c 9693 f7bc 4112 4cba b7bf 24bc
00000010: 3f88 efbb 782f 9fbb acf4 6239 8b9a 873b
00000020: 68e3 3f3c 65e1 85bc 2e9b f73b bf6b 703b
00000030: 5f9b e43b b38f 32bc 5aa2 8c3c 2bb1 19bb
00000040: 7fbb 31bb 74ec abbc a25c 6d3c d0f3 aa3c
00000050: b0d0 e93c c6fc d8bc 822c fdbb 53cc e8bc
00000060: ac97 64bc 9e04 02bc fff9 383d b557 093d
00000070: 50c6 e1bb 4864 4b3d 7de7 d53c 9d15 a23c
00000080: a784 bcbb 00dc 403c c7b5 80bb c86d 06bc
00000090: f312 e23c 8248 133c 4b32 c4bc c585 303c
000000a0: 0c69 9bbb a4d4 d3bb 814f e73c 30fa 6dbc
000000b0: 6f4a 0e3d bdd4 033c f97b 093c 947b 93bc
000000c0: b29c 563d 2788 a9bc 9337 44bc 91d2 cc39
000000d0: 6542 77bc 891e 27bc 8639 673d e8f8 b63b
000000e0: f44b cbbc 398d 123c 2f50 ae3c 42de 7cbc
000000f0: af60 d33b cc09 77bc 8425 4bb9 f9be ad3c
0.011712848 -0.030221742 -0.00077847025 -0.010055474 -0.007309943 -0.0048579536 0.00021644187 0.004138296
0.011711933 -0.016342828 0.0075563407 0.0036685315 0.0069765295 -0.010898518 0.017167259 -0.0023451548
-0.0027119813 -0.020986773 0.014487417 0.020868212 0.028541893 -0.02648772 -0.007726253 -0.028417742
-0.013952177 -0.007935671 0.04516029 0.03353091 -0.006890096 0.049656183 0.026111359 0.019785697
-0.005753118 0.011771202 -0.0039279195 -0.008204885 0.027596926 0.008989455 -0.023949763 0.010774081
-0.004742747 -0.0064645577 0.028236153 -0.014524981 0.034738954 0.008046326 0.008391374 -0.018003263
0.05239553 -0.020694805 -0.011976141 0.00039066796 -0.015091513 -0.010200151 0.056451343 0.005583871
-0.02481649 0.008944803 0.021278469 -0.01543385 0.0064507346 -0.015078019 -0.00019373564 0.021209227

fc2.weight f4 [64, 64]
00000000: 00b2 3d3c e551 aebb 280f b3bd b85b 52bd
00000010: 5773 9a3d 809d dcbb b8fd 2f3d a61f 94bd
00000020: 9af3 27bd e275 df3c cce9 1f3d 0017 743b
00000030: 1111 8cbd 4865 713d 955a 3fbe 7057 c3bc
00000040: 416c 6ebd c9b4 d9bd 31ab c93c 7fde a73d
00000050: 386b e33d 0930 17be d88e 753d 65ae f4bd
00000060: f0f6 2c3d f6ac aa3d 5842 6a3d 3f9c 2c3d
00000070: 7d9b 19bd e0b3 5dbd ba98 d73d ae81 3c3d
00000080: a0e6 fc3b 96f4 7ebd 56fc ce3d 40ee 523d
00000090: e2a4 bd3d c46c dcbd 4e0a 60bd 687c 9a3d
000000a0: cec2 c23d b9b4 ebbd 76d3 1bbd aa50 ea3d
000000b0: 4d16 293c 909f d5bd a0e5 32bd 2059 d53b
000000c0: 2da9 c33b b208 b13c 4188 e0bd b0fa adbd
000000d0: c8b3 69bd a0ab 89bc a3ba fa3d 36ba eb3d
000000e0: 62bd eb3d bcf6 ffbd 3e86 2abe 14f2 59bd
000000f0: 68b0 413d 7538 e2bc 1c57 11bd 3f4f 9c3d
00000100: 745a 173d e146 163d b2f0 863d 6896 be3c
00000110: 7498 a13c 8c68 d5bd 9cc2 9d39 301e be3c
00000120: 27c6 b33d 565e b5bc e45b 993d d84b 28be
00000130: 0ec4 843d 5acc 963d 467b 1f3e cc55 d8bd
00000140: 25d4 af3c 3a6f 3bbd 7d30 ce3d 2777 e93d
00000150: e140 cdbc 0a69 f9bd 5875 b3bd 750c d3bd
00000160: d059 81bc a4ed b23d 5ece 10be 5f3d fa3d
00000170: a910 0a3e de2d c13c 81b1 073e 14a1 e4bd
00000180: 0cbc a9bd 80b2 c23d b1d6 cebd c889 a53c
00000190: 99d4 2b3d ecfa b23d b0fa d4bd 709a b2bd
000001a0: 90b2 623d cc42 25bd d71a 1d3e 8e56 8c3d
000001b0: c7aa 61bd b061 99bd 989c 9c3d 20de bc3c
000001c0: 6fc7 14be b20b 9c3c b0c2 0abe 9d56 933d
000001d0: 2a05 dd3c 64bd b8bd 3ef8 103c 15ee cbbd
000001e0: c604 28bd d4aa a3bd 2661 d53c a135 e33c
000001f0: 203f f63b d556 6cbd 741e c63d e882 eebd
00000200: 413b bbbd a9b5 293d 8154 d9bd 388a 13bc
00000210: cf2c 223d dbf1 71bd 5ad8 d43d 90d0 d13d
00000220: 94b0 22bd fe1b 50bd d6c8 4abc d37f 353e
00000230: 2164 333d 2edf b3bd 8b93 dd3d b36f f83d
00000240: e70b 023e a364 03bd e896 88bd 18f8 293e
00000250: 3b50 a93d 82cc c0bd 81ca 0d3d a5f2 983d
00000260: bcce dcbb 90ec 003e 21bf f8bc 17cd 25bd
00000270: 4315 a3bc ec42 983d d121 82bd 72f4 e83d
00000280: 9e32 6d3d e1ea e43d ffe6 a13d 0049 b53d
00000290: 130d 5cbd 81a0 abbd 8704 5cbd 5d9c e33d
000002a0: 740f 8b3d 1a4a 4bbd 1957 a3bc a88a fbbb
000002b0: 1d70 15be 6e0b 643d c930 76bc a422 d63d
000002c0: 3096 bcbc 878c ff3d c293 603c f162 69bd
000002d0: 1f7c ee3d f418 633d 8a82 ab3d 4094 b4bd
000002e0: 0a98 c2bd 2bf0 873a 2f8b f03d ec0d 813d
000002f0: 9505 5abd f7ee a9bd b2b8 423d fdf7 153e
00000300: ac97 d63d 8336 b9bd a6f7 c43d 145f 3a3d
00000310: 0ce4 15bd e87b febd 57b3 8abc f278 bebd
00000320: a5d8 50be 861c 8cbd 5083 8e3c 3f5f 0c3c
00000330: 6890 e2bd 906a b4bd 98f7 5dbd 6360 623d
00000340: 1d57 c9bd 9631 453d 7fee 5e3e c6c4 43bc
00000350: 49c5 883d c5b2 13be 41c6 ee3c 0b6d 8ebd
00000360: 177f 403c c0ea e13c 69d6 ddbc 12d1 803d
00000370: f303 2a3d 6407 c83d f386 403e 66b2 573c
00000380: a053 b13d 1603 523d 7d94 5f3d 84d1 8dbd
00000390: aae9 f23c 68f5 8bbd d07e 05be 6879 20be
000003a0: ddd2 303c d3c0 02be 40ac 9c3d a0ad fcbc
000003b0: c3bb 99bd 80d3 f63b e4ce 92bd 4618 a23d
000003c0: d49b debd 7c2d b43d 5c4e 923d 0893 34bc
000003d0: c40d eabb c08f 153b ff93 0d3e 2ca7 113d
000003e0: 63e5 67bd 4833 73bd dd35 553d 2965 1ebd
000003f0: 72b7 d7bd 5dbe 85bd 9271 fbbd 4f99 9bbd
0.011578083 -0.005319821 -0.08743125 -0.051357 0.075415306 -0.0067326427 0.042966574 -0.07232599
-0.0410038 0.02727789 0.039041325 0.0037245154 -0.06839193 0.05893448 -0.18686898 -0.023845404
-0.058208708 -0.10630185 0.024617763 0.08196735 0.11104435 -0.14764418 0.05995068 -0.119473256
0.042227685 0.08333771 0.057192177 0.042141195 -0.0375018 -0.05412662 0.10527177 0.04602211
0.0077179223 -0.062244974 0.10106723 0.051496744 0.092599645 -0.10762933 -0.054697327 0.0754326
0.09509812 -0.115090795 -0.03804346 0.11441167 0.010320258 -0.10430825 -0.04367602 0.0065108687
0.005971095 0.021610592 -0.10963488 -0.084950805 -0.05705622 -0.01680547 0.122426294 0.11510126
0.11510731 -0.12498233 -0.16652772 -0.05320938 0.047287375 -0.027614811 -0.035483465 0.076323025
0.036951497 0.03668869 0.06588878 0.023265079 0.019726016 -0.10420331 0.0003009037 0.023207754
0.08778029 -0.02213971 0.0748823 -0.16435182 0.06482707 0.07363196 0.15574369 -0.105632395
0.021463463 -0.04576037 0.10067842 0.1139968 -0.02505535 -0.12178238 -0.08762616 -0.1030511
-0.015789896 0.087367326 -0.14141223 0.12218737 0.13482918 0.023581441 0.13251306 -0.11163536
-0.0828782 0.095067024 -0.10099543 0.0202073 0.041950796 0.08739266 -0.10399377 -0.08720863
0.05534607 -0.040346906 0.1534227 0.068524465 -0.055094507 -0.074893355 0.076470554 0.023055136
-0.14529203 0.019048546 -0.1355083 0.071942545 0.026980001 -0.090204984 0.008848248 -0.0995752
-0.041020177 -0.07991567 0.0260473 0.027735533 0.0075148493 -0.057699997 0.09673777 -0.11646062
-0.09142161 0.04143301 -0.10611821 -0.009005122 0.039593514 -0.059068542 0.10392828 0.10244858
-0.03971918 -0.050807945 -0.012376985 0.17724542 0.043796662 -0.087828025 0.10819157 0.1213068
0.12699853 -0.032078397 -0.06669408 0.16598547 0.08267256 -0.09414007 0.03461695 0.07468156
-0.006738512 0.12590241 -0.030364575 -0.040478792 -0.0199076 0.07434639 -0.06354106 0.11374749
0.0579096 0.11177612 0.07905387 0.08851814 -0.053723406 -0.08380223 -0.053715255 0.11113808
0.06790057 -0.049631216 -0.019938992 -0.007676441 -0.14593549 0.055674963 -0.01502628 0.10455826
-0.023020834 0.12477975 0.013707103 -0.056979124 0.11644768 0.05544372 0.08374508 -0.08817339
-0.095016554 0.0010371258 0.11745297 0.063014835 -0.05322798 -0.08297532 0.04753942 0.14645381
0.10478148 -0.090436004 0.09617548 0.04550083 -0.036594436 -0.12425977 -0.016931219 -0.09300412
-0.20395143 -0.06841378 0.017396599 0.00856763 -0.110626996 -0.08809388 -0.054191202 0.055267703
-0.09831069 0.048142992 0.21770667 -0.01194877 0.06678254 -0.14423664 0.02914727 -0.06954392
0.011749051 0.027577758 -0.027079778 0.06289877 0.041507673 0.09767035 0.18801479 0.013165092
0.08658528 0.051272474 0.05458497 -0.069247276 0.029652435 -0.06833917 -0.13036656 -0.15671313
0.010792461 -0.12768869 0.076500416 -0.03084451 -0.07506516 0.007532537 -0.071683675 0.07914786
-0.108695656 0.08797738 0.07143852 -0.011021383 -0.0071427543 0.0022821277 0.13825987 0.03555982
-0.056615245 -0.059375077 0.05205332 -0.038670693 -0.10533036 -0.065304495 -0.12277521 -0.07597601

fc2.bias f4 [64]
00000000: 5e31 903c 8d0c c2bb 9f56 233d 0523 23bd
00000010: 0194 66bd 4bd8 073e 4687 5cbd baeb 473d
00000020: f7c5 b73d 57dd 69bd 335a ebbd c3bf 3fbd
00000030: ec8c 773d 67a0 5fbd e048 3e3c a36a 243c
00000040: 6600 2c3e 2b14 b73d 3117 f93d 5cd3 ebbc
00000050: c83f 8fbd 6b64 e2bd ffde 6f3d 00ef db3d
00000060: fff1 0ebe 1b3d ea3d 8e95 1cbd cfe4 a3bd
00000070: 12da 27bd 211e 6c3d efe5 883d 3ed2 2c3c
00000080: 6c6b 0f3e a44d e63c 0926 623c 91b4 b63d
00000090: ca15 5fbd f556 e03d b760 083d af75 cbbd
000000a0: 0383 c5bd 66c4 e03d 71dd 563c 7f96 d03c
000000b0: 5327 023e 3e39 8e3d c2d4 5e3d 4786 7dbd
000000c0: 5aff 3f3d edfb adbc cb5a aabd 2a3a e3bd
000000d0: f86a 813d 4d6c c3bd 3956 eb3d 6e28 513c
000000e0: e06d 773c 947b 4c3d 08cf a13d 9ab3 aabb
000000f0: 2295 c23d ad82 c03d 4157 febc 4f21 c03d
0.017601665 -0.0059219063 0.03987753 -0.03982832 -0.05629349 0.13266103 -0.053839944 0.04880879
0.08973306 -0.05709585 -0.114918135 -0.046813738 0.060437128 -0.05459633 0.011614054 0.01003519
0.16797027 0.089393936 0.121626265 -0.028787307 -0.06994587 -0.110543095 0.058562275 0.10738945
-0.13959502 0.11437436 -0.038228564 -0.08002626 -0.040979452 0.05764592 0.06684481 0.0105481725
0.14005822 0.028113194 0.013803014 0.08921159 -0.05446414 0.10954086 0.03329536 -0.09934556
-0.09644129 0.1097496 0.013114319 0.025462387 0.12710313 0.06944512 0.05440212 -0.061895635
0.04687438 -0.021238292 -0.08318099 -0.11095078 0.06319231 -0.09542141 0.11491055 0.012765987
0.01510188 0.04992254 0.07900816 -0.0052093985 0.09501101 0.093999244 -0.031047465 0.09381353

fc3.weight f4 [64, 64]
00000000: 71bd 02bd 817b c9bd 3ad6 a83d 8798 22be
00000010: 1c93 7bbd fbbf 893d 61d5 b4bd c57b 21bd
00000020: 7a27 743d ded7 a1bd 4780 d53c 7974 d13c
00000030: d837 6c3c 44f3 aebd adf1 eabc a55c bfbc
00000040: f3e8 22be 6c11 0bbd 1d83 0fbe 6ca5 443d
00000050: bd98 163d 4c5f 883c b537 113e c70d bc3d
00000060: d93e 273e 97bf 57bd a741 513d 98cc b83d
00000070: c991 b43b a02a 983d eaa0 833d 4ab0 053e
00000080: c305 c63d 7537 453d 012d c0bd b0b1 003e
00000090: 8b3a f9bd 94b3 463d 3b3c d3bc 6e65 18bd
000000a0: ddbc 3abd f6c0 ff3d 3d38 d7bd 660c 6c3d
000000b0: dcf8 0c3e a527 963d 52e6 cb3c 0562 0a3e
000000c0: 7346 bdbd ac45 9b3d 29c9 8abc 09cd acbd
000000d0: 87ba e0bd 0cf1 d5bc c792 1d3e daa1 0f3d
000000e0: adcd a13d bd88 1c3e 7f76 c5bc db2d 593d
000000f0: c171 0bbe 997e 26bd b40a ed3d 1071 a63d
00000100: da41 073e dfd4 843d 26e8 e03d b6e7 2f3d
00000110: dc13 91bd 976b 953c 11f3 663d 0c66 f33d
00000120: eff9 583c 7eb8 a13c b9c7 ad3d 6b2d 1dbe
00000130: 5cbd c33d e499 b93d 431b 093d 85a5 c6bd
00000140: 25ca 17be 325b 75bc 99ac b83b f7b5 bf3d
00000150: a699 433c 3d37 a23d 3362 9e3d bc5f e63c
00000160: 2182 3e3e 6714 723c b9bc 89bd d001 293d
00000170: 6f91 173c b1f1 f8bc 649e 333d cfac 883c
00000180: 9c49 03be 87cc 833d 2da2 123d eced 19bc
00000190: aa48 113d e035 2f3e aa6e 6fbd bc81 ce3d
000001a0: c7ec 4f3d 1dee 19be 1340 80bd a536 9d3c
000001b0: 356e c93d d2a4 0abd d8f5 cabd 107f f9bc
000001c0: e353 123d 70b1 f33c 1346 0e3e 61d8 e43c
000001d0: a0d5 66bd f8d1 06bd 9f37 393d 42e3 183e
000001e0: 64c4 4cbd 2a2e f3bc 772f b03d f93c adbc
000001f0: 2dca cc3b f429 4a3d 5c67 9d3d 7e2d a53d
00000200: e396 343a 53ec bd3b a18b 81bd 8450 07be
00000210: 55c9 0a3d 64bf 483e 1e8f c3bd 24b6 cd3d
00000220: 2b3b 823d d0a5 e2bd 285f a5bd 9ca3 e33c
00000230: 02fd 04be 9824 33be ca43 af3d 4817 1fbd
00000240: 1cac 56be f8a4 5bbd a349 143e 16e7 cb3d
00000250: b4b5 30bd 9e5a 8bbc 7e07 6e3d a3ee c23d
00000260: 0b83 00be 51ac f9bd 4cb8 62bd 6c65 693d
00000270: be29 543d 1b10 cebd 4b8f 00be 3a5a d23c
00000280: 8ae3 05be 3cbc 48bd b9b1 3ebd bb77 d83c
00000290: 52e2 7d3c e08f ca3d 20a4 edbd 062a 653e
000002a0: eb5e 523d c556 ecbd 164a 023c 1684 a9bd
000002b0: 1ea2 2a3d f6c5 493e 3dbc fabd 601d 9cbd
000002c0: 8e23 a53d 5d6f cd3d d5f2 ee3d 55e2 8f3c
000002d0: 1cbf 023d 8914 973b 4d16 dfbc 8c04 7c3d
000002e0: 3408 3abc e683 2cbd 0398 233e 8a18 1dbe
000002f0: c2a6 da3d d2f3 11bd b852 2bbe 7d12 0f3c
00000300: b739 393e ea11 c5bd bb1d adbd 2390 febc
00000310: f539 adbd 4b15 db3d 9e0c 1cbe 7b3d b23c
00000320: e003 da3c d1f4 85bd fb28 b6bd e235 8fbd
00000330: 4b01 163d 729c 6c3d 3482 083d 420a b4bd
00000340: f042 e8bd d782 a13d dd33 173d af1b fcbd
00000350: 1315 093e e638 5c3d c10f af3c 335c c33c
00000360: b021 913d 28e6 cebd 3c0b 833d de3d 723d
00000370: 1901 713b e4d3 f2bd 8d2f 0a3d 5094 ee3d
00000380: 6623 8f3d ca2c b9bc 8f4d 9f3c b99e edbd
00000390: 2ccb 5e3d fc88 a0bc 1566 993d e4e4 3abd
000003a0: a5f9 833d 8ba4 09bc 6050 803d 6a16 963d
000003b0: a98c c33d 27a2 14be 6145 95bd 57ec 14be
000003c0: 3f59 033d 4b52 02be b036 8dbd 10ae 853d
000003d0: df1c 65bd 212a 29ba e01e 9e3d d989 1fbd
000003e0: 2bf5 cdbd b89d 16bc 4b8d adbd 6688 163c
000003f0: 1e4e 1f3d 7958 48bd 8035 a4bc 0d08 d63b
-0.031918947 -0.098380096 0.082439855 -0.15878497 -0.06141959 0.067260705 -0.08829761 -0.039424676
0.05960796 -0.079025015 0.026062144 0.025568234 0.014417611 -0.08542493 -0.028679693 -0.023359606
-0.15909176 -0.03395216 -0.1401486 0.04800932 0.036766756 0.016647004 0.14181407 0.09182315
0.16332568 -0.05267295 0.051088 0.09023398 0.005510543 0.07430005 0.06427176 0.1305553
0.09669068 0.04814859 -0.09383584 0.12567782 -0.12169369 0.048511103 -0.025785556 -0.037206106
-0.04559027 0.12487976 -0.105087735 0.05762901 0.13766807 0.0733178 0.024890099 0.13513954
-0.09241953 0.07581648 -0.016941624 -0.08437545 -0.10973077 -0.026115917 0.15388022 0.035066463
0.07900558 0.15286537 -0.024104355 0.053022247 -0.13617612 -0.040648077 0.11574307 0.08127034
0.13208714 0.064859144 0.10981779 0.042945586 -0.07083866 0.01823978 0.05638415 0.11884698
0.013243183 0.019741293 0.0848536 -0.15349357 0.09557602 0.090625554 0.033473264 -0.09699539
-0.14823206 -0.014975356 0.0056358096 0.09360879 0.011938488 0.07920692 0.07733574 0.028121822
0.18604328 0.014775372 -0.06725449 0.041261494 0.009250983 -0.030388685 0.043852225 0.016683964
-0.12821048 0.06435495 0.035799194 -0.009395104 0.03546969 0.17110395 -0.058455147 0.100833386
0.050762918 -0.1503224 -0.06262221 0.019191096 0.098354734 -0.03384859 -0.09910172 -0.030456096
0.03572453 0.029747695 0.13893919 0.027935209 -0.056356072 -0.032915086 0.04521906 0.14930442
-0.04999198 -0.029685099 0.08602803 -0.021147238 0.006249687 0.049356416 0.0768573 0.080653176
0.0006888939 0.0057959943 -0.0632546 -0.13214308 0.03388341 0.1960426 -0.09548782 0.10044506
0.06358942 -0.110667825 -0.0807479 0.027787976 -0.1298714 -0.17494428 0.085578516 -0.038840562
-0.20964092 -0.053624123 0.14481215 0.099561855 -0.043142036 -0.017010983 0.058112614 0.095181726
-0.12549989 -0.1219107 -0.05535154 0.05698149 0.05179762 -0.100616656 -0.12554662 0.025677789
-0.1307508 -0.04900764 -0.04655621 0.02642428 0.0154958535 0.09890723 -0.1160357 0.22379312
0.051360052 -0.115399875 0.007952234 -0.082771465 0.041658513 0.19704422 -0.12242935 -0.0762279
0.08063422 0.100310065 0.1166741 0.017563978 0.031920537 0.0046106023 -0.027232314 0.061527774
-0.011354495 -0.042117976 0.15975957 -0.15341392 0.10676338 -0.035632916 -0.16730773 0.008732435
0.18088423 -0.096225575 -0.08452936 -0.03107459 -0.0845832 0.10697421 -0.15239188 0.021757832
0.026613176 -0.06540836 -0.08894535 -0.06992699 0.036622327 0.057766385 0.033327296 -0.08791019
-0.11340892 0.07886284 0.036914695 -0.12309968 0.13386945 0.0537652 0.021369817 0.023847675
0.070865035 -0.101024926 0.06398627 0.059141032 0.0036774336 -0.11856821 0.033736754 0.11649382
0.069891736 -0.022604365 0.019446163 -0.116025396 0.05439298 -0.01959657 0.07490174 -0.045628443
0.064441 -0.0084010465 0.0626533 0.07328494 0.09548313 -0.14514981 -0.072886236 -0.14543281
0.032067534 -0.12726705 -0.068951964 0.065273404 -0.055935737 -0.0006453116 0.07720733 -0.03894982
-0.10056528 -0.0091928765 -0.08474215 0.009187793 0.038892858 -0.0489125 -0.020045042 0.0065317214

fc3.bias f4 [64]
00000000: f3fc 073d 6586 c83d 4058 c9bd 3014 ee3c
00000010: 38d4 c03d 2e13 e2bd 875c b8ba bd6a 5d3c
00000020: febf 883d 5db3 993d f8c9 cd3c 8b59 943d
00000030: 98a3 e93d 55af 86bd 4cb0 46bc e69f 3fbd
00000040: c569 9a3c 2893 af3d 0016 d93d bed7 2bbd
00000050: ecf3 193d b212 35bd 8fef b5bc a9d7 133e
00000060: 02e6 0b3e 8063 9bbd 1310 fcbb 89ea 74bc
00000070: 0c37 093e 106d eb3d 0002 0c3e 0470 61bd
00000080: ba8b c5bd b8ba a23c 2609 04be d85b c93d
00000090: 6ecb bebd bab4 c6bc a2e2 1a3e 95a9 b23d
000000a0: 5032 c23d b3d0 22bd ad9b 903d 7656 fbbd
000000b0: fead fa3b 7fbd 963d 5ff9 b33b 3de9 e83c
000000c0: 787a 613c 527a fc3d d031 74bd e8bd 69bd
000000d0: dad5 b0bd db32 73bd 469c 0abd 834f 1d3d
000000e0: f31a 1f3e 14a0 cbbc 8a48 ab3d 2efe a03d
000000f0: 7d67 a6ba 4987 843d c1b8 18bb 487f 07be
0.033200216 0.09791259 -0.098312855 0.02906236 0.094154775 -0.110388145 -0.0014065661 0.013514218
0.066772446 0.07504914 0.02512072 0.072436415 0.11408156 -0.06576411 -0.012126993 -0.04678335
0.018849263 0.0857299 0.10599899 -0.041953795 0.037586138 -0.044207282 -0.022208957 0.14437737
0.1366196 -0.075873375 -0.007692346 -0.014948496 0.13399905 0.114954114 0.13672638 -0.055038467
-0.09645791 0.019864425 -0.12894115 0.09831971 -0.09316145 -0.024256099 0.15125516 0.087237515
0.094822526 -0.039749812 0.07060943 -0.122723505 0.007650136 0.07360362 0.005492374 0.02843153
0.013762109 0.12328018 -0.059617817 -0.057065874 -0.08634539 -0.05937467 -0.03384044 0.038405906
0.15537624 -0.024856605 0.08363445 0.07860981 -0.0012695637 0.06471116 -0.0023303481 -0.13232148

fc4.weight f4 [10, 64]
00000000: 8ce8 483d 36b2 173e bda5 2f3e 0615 cf3d
00000010: 81bb 073e 34c3 c43d 3d57 4a3d 5450 0a3e
00000020: 63d5 39be 5171 0abe 0dd7 8a3d 7853 9bbd
00000030: 140b 32bd 61f5 2cbe efbe 0abe 14c2 023e
00000040: fc17 4b3b 2163 c5bd 6a34 65bd 4699 783d
00000050: 1bd1 a5bd 50a8 353e d6f7 b0bc 883c b53d
00000060: 8337 80bd 4453 7a3d a16e 0bbe 1ceb 23be
00000070: 9677 f23c 01ea 4fbe eb4c 2cbe 66fd ee3d
00000080: 970c 33bd d22c adbd e36c dabc bda1 563d
00000090: f843 a3bc 668c a33d fc82 d13d 6160 81bd
000000a0: 0218 0f3e 9fc8 a8bb 8604 56be 23b6 ec3b
000000b0: 80ad f8bd 62bd c7bd 6f04 bb3d c191 13be
000000c0: c6d0 3c3c f761 bcbd d75d 9ebd 621a fa3d
000000d0: 5b24 15b9 9514 d63b 04c5 17be 10e6 853b
000000e0: 5fe6 bdbd 6a48 8fbd 84a9 eebd af0b 163d
000000f0: 38b0 d1bd fcda f43d d9c7 1abe 39bb 03be
00000100: 4b2e 76bd 88f0 a83d 41ac e5bd 7f8d c0bd
00000110: 4e09 3d3d 31b5 adbd e19d 1dbe 5290 443c
00000120: c4f1 b83d 21b1 ecbd d4e9 a5bd 8ba1 f43c
00000130: c74f f43d 26b1 c9bc 9518 023e 8fc3 82bd
00000140: b9ae 6a3d ff38 dc3c b36c 4a3e 08a5 3b3c
00000150: 85d4 c83c 67b4 803d e5fe 5ebe cca5 ff3d
00000160: 5bb8 be3d 4be5 02be e890 c13d 5ba8 8ebd
00000170: b706 793e 183a 5f3d 5811 b03d c0f9 32bd
00000180: c09a c03d e0cb 863d 38fa cebd 15af 72be
00000190: b142 44bc 2a38 01be ded2 7dbe 44a4 173e
000001a0: 6c40 74bd 9f87 34bd 11a4 f6bd e16b 2ebd
000001b0: fc29 02be 09b8 823e e2fd 87bd 5811 86bd
000001c0: a699 c3bd 4c9d ff3c 1e4b d2bd 3fd0 0c3b
000001d0: 0e08 2cbe af2e 24be 44a7 443d 6bb3 0fbc
000001e0: 4e11 2d3e a1b3 3abd 81b0 7e3d e6c1 3b3d
000001f0: f026 31be 939f 403d c1c4 be3d d919 f7bd
00000200: 4a88 47be f8f6 9ebd deb1 10bd 2145 09be
00000210: fe66 9a3d 3183 9fbd f537 de3d 7be4 54bd
00000220: 4fd5 38be 5e81 8a3d 9afc 12be 95bb 833d
00000230: 10ef efbd 674c 813d d96b 8f3d 06c0 073e
00000240: 8ded f13d 6dc9 31be 618d 033e c453 4bbd
00000250: e822 5dbc 37b2 4dbd 5644 f13a 24f3 89bd
00000260: f699 d5bd 5c3d 0e3e c5fc 09be ffdd b73c
00000270: df9a 22be e05c f33c 8506 a4bd b809 e73c
00000280: da4f 83bd 108d 02bc 1faf c73d 8a4c 1fbe
00000290: d4cf 743d 557e 95bd 9bb4 e0bd 3824 843d
000002a0: f8a3 db3d e87c 8a3b 666c 98bd 2df7 b2bc
000002b0: 2a62 b2bd 9fdd 4dbc 9400 173d c528 52be
000002c0: b201 923c a990 163e b259 17be 8972 913c
000002d0: 9e78 063d cc1b 0cbe db54 663d f037 e33d
000002e0: 4ac7 8e3d 06c0 1a3e 3091 27be d613 bf3d
000002f0: 7648 063e 2f3c 20be ca51 17bd c650 563d
00000300: 51b2 a93d 0ea9 8cba b126 063d 7199 5a3d
00000310: 121d 823c 69a0 8b3d 5c4f 0b3e a0f8 8dbd
00000320: e799 42bd 90c2 12be 830f 2e3c 9ed6 2abd
00000330: e285 833b 6c95 fb3d ec1c 18be 6ca1 62bd
00000340: 2889 b0bd 491a dc3d 8f95 27bd cadd e2bd
00000350: 42f4 4a3d 6be2 dd3d 1ff8 183d f6bf ac3d
00000360: 9727 083e 5f10 e2bd 079e 7dbe 5867 c93d
00000370: d1a6 23be e6e7 703d 857c 06be 3ad5 a13d
00000380: 86cb 033e 66c7 c7bd c407 1dbe ee02 0a3c
00000390: 4b0c d33d d47d f1bd 6082 74bd 2f42 753d
000003a0: 384c 573d 1460 4dbd 38bf 663d d8bb 08be
000003b0: f0f4 2a3e 5c3a 1f3b 907e fb3b 792d f23c
000003c0: 2a8c 7fbc f206 b03d 158c d0bd c50a 2fbe
000003d0: 1bd9 163b 78b8 4dbe 6419 f73b 8c27 103d
000003e0: 381c 56bd 42ad e53c 908d 083e 2e7d 34bd
000003f0: 40b7 f33d 929c 2a3d 2d81 db3d 23cc 983d
0.0490499 0.14814076 0.17153068 0.10111432 0.13255121 0.096075445 0.049399603 0.13507205
-0.18147807 -0.1351979 0.06779299 -0.0758428 -0.043467596 -0.1689048 -0.13549398 0.12769347
0.0030989638 -0.09638048 -0.05595819 0.060693048 -0.08096524 0.17739987 -0.021602552 0.08849436
-0.06260588 0.061114565 -0.1361642 -0.16007656 0.029598039 -0.20304109 -0.16826217 0.11669426
-0.04371318 -0.084558144 -0.02666325 0.05240034 -0.019929871 0.07985763 0.102300614 -0.06317211
0.13974002 -0.005150869 -0.20900163 0.007223861 -0.121424675 -0.09752919 0.09131705 -0.1441107
0.011524385 -0.09198373 -0.07732742 0.12212063 -0.00014223291 0.0065332153 -0.14821249 0.0040862635
-0.092724554 -0.06996234 -0.11653426 0.036632236 -0.10238689 0.119558305 -0.15115298 -0.12864389
-0.060102742 0.08249003 -0.112144955 -0.09401988 0.04615145 -0.08481825 -0.15392257 0.011997299
0.09030488 -0.11557222 -0.0810124 0.029862186 0.11929279 -0.024620604 0.1270469 -0.06384956
0.057295535 0.026882647 0.19768028 0.011452921 0.0245154 0.06284409 -0.21776922 0.12482795
0.09312507 -0.12782781 0.09451467 -0.06965705 0.24318968 0.054498762 0.08597058 -0.04369521
0.09404516 0.06581855 -0.10106319 -0.23699601 -0.011978791 -0.12619081 -0.2478747 0.14808756
-0.05963175 -0.04407465 -0.12043012 -0.04258335 -0.12711328 0.25531033 -0.06640221 -0.06546277
-0.095507905 0.031202935 -0.10268234 0.002148643 -0.16799948 -0.16033433 0.04801108 -0.008770804
0.16901132 -0.045581464 0.062180046 0.045839213 -0.1730001 0.04702718 0.093148716 -0.12065477
-0.19485584 -0.07761949 -0.035325877 -0.13405277 0.075391755 -0.07788695 0.10850517 -0.05197571
-0.18050121 0.06762956 -0.14354172 0.06432263 -0.117155194 0.06313401 0.07002992 0.13256845
0.11812887 -0.17361994 0.128469 -0.049640432 -0.013497092 -0.050218787 0.0018407207 -0.067358285
-0.10429756 0.13890594 -0.1347533 0.022444723 -0.15879391 0.029707372 -0.08009056 0.028202876
-0.06411715 -0.007968202 0.097501986 -0.15556541 0.059768513 -0.072994865 -0.10971948 0.06452221
0.10724634 0.0042263158 -0.0744255 -0.021846378 -0.087101296 -0.012565046 0.036865786 -0.20523365
0.017823074 0.14703621 -0.1478031 0.01775481 0.032829873 -0.13682479 0.05623327 0.110946536
0.06971605 0.15112314 -0.16363978 0.09329955 0.13113579 -0.15647958 -0.036943235 0.052323125
0.08285964 -0.0010731535 0.032751743 0.05336899 0.015883002 0.06817705 0.13604492 -0.06932187
-0.047510054 -0.14332032 0.0106238155 -0.04170858 0.004013763 0.12284359 -0.14854783 -0.055329725
-0.086199105 0.10747201 -0.040914115 -0.11077459 0.04954935 0.108342014 0.037346 0.08435051
0.13296352 -0.11038279 -0.24767314 0.098341644 -0.15981604 0.058814906 -0.13133438 0.07901998
0.12870607 -0.09754829 -0.15334994 0.00842355 0.10305079 -0.11791578 -0.059694648 0.05987757
0.052562922 -0.050140455 0.056334704 -0.13352907 0.16694999 0.002429626 0.0076749995 0.029562699
-0.015597383 0.08595075 -0.101829685 -0.17093952 0.0023017589 -0.200899 0.0075408686 0.035193965
-0.052273005 0.028036717 0.13335252 -0.044064693 0.119001865 0.041653223 0.10717998 0.07460811

fc4.bias f4 [10]
00000000: d8ba 063e 9cfc 973d 593a cf3d f466 24be
00000010: a796 8f3d cc0c 68bd dca8 98bd 7994 07be
00000020: a938 af3c 9615 c4bd
0.13157213 0.07421228 0.10118551 -0.16054899 0.070111565 -0.05665283 -0.07454082 -0.13240232
0.021389322 -0.0957443
